…
numpy.nested_iters,Create nditers for use in nested loops,"[{'Parameters': [{'name': 'op', 'type': 'ndarray or sequence of array_like', 'description': 'The array(s) to iterate over.'}, {'name': 'axes', 'type': 'list of list of int', 'description': 'Each item is used as an “op_axes” argument to an nditer'}, {'name': 'flags, op_flags, op_dtypes, order, casting, buffersize (optional)', 'type': None, 'description': 'See nditer parameters of the same name'}]}, {'Returns': [{'name': 'iters', 'type': 'tuple of nditer', 'description': 'An nditer for each item in axes, outermost first'}]}]",">>> import numpy as np
>>> a = np.arange(12).reshape(2, 3, 2)
>>> i, j = np.nested_iters(a, [[1], [0, 2]], flags=[""multi_index""])
>>> for x in i:
...      print(i.multi_index)
...      for y in j:
...          print('', j.multi_index, y)
(0,)
 (0, 0) 0
 (0, 1) 1
 (1, 0) 6
 (1, 1) 7
(1,)
 (0, 0) 2
 (0, 1) 3
 (1, 0) 8
 (1, 1) 9
(2,)
 (0, 0) 4
 (0, 1) 5
 (1, 0) 10
 (1, 1) 11"
numpy.flatiter,Flat iterator object to iterate over arrays.,"[{'Attributes': [{'name': 'base', 'type': None, 'description': 'A reference to the array that is iterated over.'}, {'name': 'coords', 'type': None, 'description': 'An N-dimensional tuple of current coordinates.'}, {'name': 'index', 'type': None, 'description': 'Current flat index into the array.'}]}]",">>> import numpy as np
>>> x = np.arange(6).reshape(2, 3)
…
numpy.ma.ndenumerate,Multidimensional index iterator.,"[{'Parameters': [{'name': 'a', 'type': 'array_like', 'description': 'An array with (possibly) masked elements.'}, {'name': 'compressed', 'type': 'bool, optional', 'description': 'If True (default), masked elements are skipped.'}]}]",">>> import numpy as np
>>> a = np.ma.arange(9).reshape((3, 3))
>>> a[1, 0] = np.ma.masked
>>> a[1, 2] = np.ma.masked
>>> a[2, 1] = np.ma.masked
>>> a
masked_array(
  data=[[0, 1, 2],
        [--, 4, --],
        [6, --, 8]],
  mask=[[False, False, False],
        [ True, False,  True],
        [False,  True, False]],
  fill_value=999999)
>>> for index, x in np.ma.ndenumerate(a):
...     print(index, x)
(0, 0) 0
(0, 1) 1
(0, 2) 2
(1, 1) 4
(2, 0) 6
(2, 2) 8
>>> for index, x in np.ma.ndenumerate(a, compressed=False):
...     print(index, x)
(0, 0) 0
(0, 1) 1
(0, 2) 2
(1, 0) --
(1, 1) 4
(1, 2) --
(2, 0) 6
(2, 1) --
(2, 2) 8"
numpy.ma.flatnotmasked_contiguous,Find contiguous unmasked data in a masked array.,"[{'Parameters': [{'name': 'a', 'type': 'array_like', 'description': 'The input array.'}]}, {'Returns': [{'name': 'slice_list', 'type': 'list', 'description': 'A sorted sequence of slice objects (start index, end index).'}]}]",">>> import numpy as np
>>> a = np.ma.arange(10)
>>> np.ma.flatnotmasked_contiguous(a)
[slice(0, 10, None)]
…
